{"format": "torch", "nodes": [{"name": "conv0", "id": 1516312159304, "class_name": "ConvSequence(\n  (conv0): Conv2d(3, 16, kernel_size=(3, 3), stride=(1, 1), padding=(1, 1))\n  (max0): MaxPool2d(kernel_size=3, stride=2, padding=1, dilation=1, ceil_mode=False)\n  (res0): ResidBlock(\n    (conv0): Conv2d(16, 16, kernel_size=(3, 3), stride=(1, 1), padding=(1, 1))\n    (relu): ReLU()\n    (conv1): Conv2d(16, 16, kernel_size=(3, 3), stride=(1, 1), padding=(1, 1))\n  )\n  (res1): ResidBlock(\n    (conv0): Conv2d(16, 16, kernel_size=(3, 3), stride=(1, 1), padding=(1, 1))\n    (relu): ReLU()\n    (conv1): Conv2d(16, 16, kernel_size=(3, 3), stride=(1, 1), padding=(1, 1))\n  )\n)", "parameters": [["conv0.weight", [16, 3, 3, 3]], ["conv0.bias", [16]], ["res0.conv0.weight", [16, 16, 3, 3]], ["res0.conv0.bias", [16]], ["res0.conv1.weight", [16, 16, 3, 3]], ["res0.conv1.bias", [16]], ["res1.conv0.weight", [16, 16, 3, 3]], ["res1.conv0.bias", [16]], ["res1.conv1.weight", [16, 16, 3, 3]], ["res1.conv1.bias", [16]]], "output_shape": [[16, 16, 32, 32]], "num_parameters": [432, 16, 2304, 16, 2304, 16, 2304, 16, 2304, 16]}, {"name": "conv1", "id": 1516669305736, "class_name": "ConvSequence(\n  (conv0): Conv2d(16, 32, kernel_size=(3, 3), stride=(1, 1), padding=(1, 1))\n  (max0): MaxPool2d(kernel_size=3, stride=2, padding=1, dilation=1, ceil_mode=False)\n  (res0): ResidBlock(\n    (conv0): Conv2d(32, 32, kernel_size=(3, 3), stride=(1, 1), padding=(1, 1))\n    (relu): ReLU()\n    (conv1): Conv2d(32, 32, kernel_size=(3, 3), stride=(1, 1), padding=(1, 1))\n  )\n  (res1): ResidBlock(\n    (conv0): Conv2d(32, 32, kernel_size=(3, 3), stride=(1, 1), padding=(1, 1))\n    (relu): ReLU()\n    (conv1): Conv2d(32, 32, kernel_size=(3, 3), stride=(1, 1), padding=(1, 1))\n  )\n)", "parameters": [["conv0.weight", [32, 16, 3, 3]], ["conv0.bias", [32]], ["res0.conv0.weight", [32, 32, 3, 3]], ["res0.conv0.bias", [32]], ["res0.conv1.weight", [32, 32, 3, 3]], ["res0.conv1.bias", [32]], ["res1.conv0.weight", [32, 32, 3, 3]], ["res1.conv0.bias", [32]], ["res1.conv1.weight", [32, 32, 3, 3]], ["res1.conv1.bias", [32]]], "output_shape": [[16, 32, 16, 16]], "num_parameters": [4608, 32, 9216, 32, 9216, 32, 9216, 32, 9216, 32]}, {"name": "conv2", "id": 1516278916552, "class_name": "ConvSequence(\n  (conv0): Conv2d(32, 32, kernel_size=(3, 3), stride=(1, 1), padding=(1, 1))\n  (max0): MaxPool2d(kernel_size=3, stride=2, padding=1, dilation=1, ceil_mode=False)\n  (res0): ResidBlock(\n    (conv0): Conv2d(32, 32, kernel_size=(3, 3), stride=(1, 1), padding=(1, 1))\n    (relu): ReLU()\n    (conv1): Conv2d(32, 32, kernel_size=(3, 3), stride=(1, 1), padding=(1, 1))\n  )\n  (res1): ResidBlock(\n    (conv0): Conv2d(32, 32, kernel_size=(3, 3), stride=(1, 1), padding=(1, 1))\n    (relu): ReLU()\n    (conv1): Conv2d(32, 32, kernel_size=(3, 3), stride=(1, 1), padding=(1, 1))\n  )\n)", "parameters": [["conv0.weight", [32, 32, 3, 3]], ["conv0.bias", [32]], ["res0.conv0.weight", [32, 32, 3, 3]], ["res0.conv0.bias", [32]], ["res0.conv1.weight", [32, 32, 3, 3]], ["res0.conv1.bias", [32]], ["res1.conv0.weight", [32, 32, 3, 3]], ["res1.conv0.bias", [32]], ["res1.conv1.weight", [32, 32, 3, 3]], ["res1.conv1.bias", [32
…
